…
quantized_relu(...|quantized_relu(...|dense_act_1_activation_quantizer
quantized_bits(...|quantized_bits(...|output_dense_bias_quantizer
----- stdout -----
learning_rate: 0.003000000026077032
Model: "keras_baseline"
----- stdout -----
_________________________________________________________________
----- stdout -----
 Layer (type)                Output Shape              Param #
----- stdout -----
=================================================================
----- stdout -----
 input_3 (InputLayer)        [(None, 32, 32, 3)]       0
----- stdout -----

----- stdout -----
 conv_0 (QConv2D)            (None, 30, 30, 16)        432
----- stdout -----

----- stdout -----
 bn_conv_0 (BatchNormalizati  (None, 30, 30, 16)       64
----- stdout -----
 on)
----- stdout -----

----- stdout -----
 conv_act_0 (QActivation)    (None, 30, 30, 16)        0
----- stdout -----

----- stdout -----
 pool_0 (MaxPooling2D)       (None, 15, 15, 16)        0
----- stdout -----

----- stdout -----
 conv_1 (QConv2D)            (None, 13, 13, 16)        2304
----- stdout -----

----- stdout -----
 bn_conv_1 (BatchNormalizati  (None, 13, 13, 16)       64
----- stdout -----
 on)
----- stdout -----

----- stdout -----
 conv_act_1 (QActivation)    (None, 13, 13, 16)        0
----- stdout -----

----- stdout -----
 pool_1 (MaxPooling2D)       (None, 6, 6, 16)          0
----- stdout -----

----- stdout -----
 conv_2 (QConv2D)            (None, 4, 4, 48)          6912
----- stdout -----

----- stdout -----
 bn_conv_2 (BatchNormalizati  (None, 4, 4, 48)         192
----- stdout -----
 on)
----- stdout -----

----- stdout -----
 conv_act_2 (QActivation)    (None, 4, 4, 48)          0
----- stdout -----

----- stdout -----
 pool_2 (MaxPooling2D)       (None, 2, 2, 48)          0
----- stdout -----

----- stdout -----
 flatten_2 (Flatten)         (None, 192)               0
----- stdout -----

----- stdout -----
 dense_0 (QDense)            (None, 84)                16128
----- stdout -----

----- stdout -----
 bn_dense_0 (BatchNormalizat  (None, 84)               336
----- stdout -----
 ion)
----- stdout -----

----- stdout -----
 dense_act_0 (QActivation)   (None, 84)                0
----- stdout -----

----- stdout -----
 dense_1 (QDense)            (None, 48)                4032
----- stdout -----

----- stdout -----
 bn_dense_1 (BatchNormalizat  (None, 48)               192
----- stdout -----
 ion)
----- stdout -----

----- stdout -----
 dense_act_1 (QActivation)   (None, 48)                0
----- stdout -----

----- stdout -----
 output_dense (QDense)       (None, 10)                490
----- stdout -----

----- stdout -----
 output_softmax (Activation)  (None, 10)               0
----- stdout -----

----- stdout -----
=================================================================
----- stdout -----
Total params: 31,146
----- stdout -----
Trainable params: 30,722
----- stdout -----
Non-trainable params: 424
----- stdout -----
_________________________________________________________________
----- stdout -----
stats: delta_p=0.08 delta_n=0.08 rate=2.0 trial_size=1852936 reference_size=520009
…
